MD/app/src/main/ml/model.tflite (tflite, 3148 bytes, 4 tensors)

sequential/dense/BiasAdd/ReadVariableOp f4 [32]
0.0 0.0 3.725131 0.71151406 0.0 0.0 1.8316286 0.0
-1.9733353 2.958371 -2.6066186 0.73881024 0.0 -2.333196 0.0 3.7629302
-2.128227 0.0 -2.1425834 -2.2921474 -2.3985562 0.0 0.0 -1.9756676
0.0 3.294135 -0.62266743 0.0 -1.6944834 0.0 2.7051544 -1.772929
00000000: 0000 0000 0000 0000 8c68 6e40 c925 363f
00000010: 0000 0000 0000 0000 ce72 ea3f 0000 0000
00000020: 4096 fcbf f355 3d40 d7d2 26c0 ab22 3d3f
00000030: 0000 0000 1553 15c0 0000 0000 d9d3 7040
00000040: df34 08c0 0000 0000 1620 09c0 8bb2 12c0
00000050: f281 19c0 0000 0000 0000 0000 ade2 fcbf
00000060: 0000 0000 1cd3 5240 2267 1fbf 0000 0000
00000070: d5e4 d8bf 0000 0000 4021 2d40 56ef e2bf

sequential/dense_1/BiasAdd/ReadVariableOp f4 [6]
0.870135 0.8011619 0.43253556 -0.18952604 -0.50879824 -1.9299014
00000000: 2bc1 5e3f f218 4d3f 4d75 dd3e 1d13 42be
00000010: 9a40 02bf 0207 f7bf

sequential/dense/MatMul f4 [32, 2]
-0.09169307 -0.021291316 0.03306845 -0.19021717 -2.7376125 0.201739 0.94012725 -0.7920311
-0.3399123 -0.038318425 -0.34067476 -0.15478954 -2.257386 0.37003428 -0.3185835 0.118867725
1.911523 1.2173082 -1.9589443 -0.20566972 3.7263517 0.8920633 1.5333802 -0.82913333
-0.39385563 0.21539465 3.3537557 0.79962146 -0.24937421 0.12158778 -2.383112 0.03985187
3.822611 0.25421363 0.29062793 -0.32634017 3.4224136 0.51417696 2.251004 1.3758844
2.5263615 1.3364362 0.16532746 -0.35518444 0.02009666 -0.12077591 3.6252172 0.17904769
-0.085316956 -0.07406443 -2.4636383 0.24319223 1.9295481 -0.29858264 -0.28499705 -0.13235503
3.3194087 0.019682426 -0.35016173 -0.118922144 -2.627902 0.5118448 3.600449 -0.03747629
00000000: 94c9 bbbd 206b aebc c872 073d 4ac8 42be
00000010: 0b35 2fc0 ab94 4e3e 2eac 703f 8dc2 4abf
00000020: fc08 aebe c8f3 1cbd ec6c aebe 2681 1ebe
00000030: 0379 10c0 2275 bd3e 601d a3be ec70 f33d
00000040: c9ac f43f c1d0 9b3f b0be fabf 159b 52be
00000050: 8c7c 6e40 435e 643f cd45 c43f 1542 54bf
00000060: 72a7 c9be 6a90 5c3e efa3 5640 feb3 4c3f
00000070: f45b 7fbe 0403 f93d e884 18c0 b73b 233d
00000080: a9a5 7440 4a28 823e 2fcd 943e 0f16 a7be
00000090: d308 5b40 1aa1 033f 7310 1040 fb1c b03f
000000a0: e8af 2140 5710 ab3f 9a4b 293e bcda b5be
000000b0: c0a1 a43c 5c59 f7bd 8f03 6840 4758 373e
000000c0: a8ba aebd 18af 97bd 40ac 1dc0 6207 793e
000000d0: 6ffb f63f d3df 98be 22eb 91be 1488 07be
000000e0: 3171 5440 0a3d a13c 6648 b3be 748d f3bd
000000f0: 8c2f 28c0 4308 033f c26d 6640 bd80 19bd

sequential/dense_1/MatMul f4 [6, 32]
0.061870605 0.002815336 0.765907 0.9502296 0.19461581 0.329505 0.22247897 0.37186489
-3.2037518 1.0582876 -1.9454943 0.6982589 0.37211946 -1.9124454 0.11415967 1.0731616
-0.79548115 -0.35950023 -1.6264154 -4.053861 -3.4778259 0.16107002 0.35890082 -0.9379506
0.29056522 0.6806167 0.36794728 -0.08223036 -0.39157367 0.040382415 -0.1474229 -0.21985663
-0.28183407 -0.3824017 2.0152335 -0.24346223 0.01756829 0.2752405 4.0833087 0.3571473
-3.7968495 1.8789728 -4.852858 -0.034060158 0.31212965 -4.477922 -0.17033929 1.7876945
-5.230526 0.081383765 -4.8118305 -5.578286 -4.7673874 -0.23403406 0.18712237 -5.3971033
-0.11673626 2.2230482 -1.6916813 0.0063935816 -5.884669 -0.39099237 2.9835005 -5.045815
-0.37848297 0.39081863 3.015326 -1.9166362 0.34089503 -0.1413042 5.5980577 -0.20318824
-12.491403 2.8914409 -15.095765 -2.831433 -0.22639288 -15.259813 0.12618205 2.6312704
-15.521027 -0.07386708 -15.65347 -14.748363 -13.880394 0.026453972 -0.2088854 -15.627913
0.28239778 3.1568155 -5.9721465 0.022949696 -16.118486 -0.3818598 4.0261674 -16.225748
0.1555815 0.043159664 -0.6864274 0.38036966 -0.13646972 -0.059200495 -1.1668955 -0.37233278
0.11372961 -0.6759892 0.73758066 0.30824602 0.32212994 0.40365896 0.34512886 -0.4071813
0.63474405 -0.24882947 0.6649627 0.6486376 0.112723485 0.10081822 0.02167198 0.9818066
-0.16526948 -0.24629545 0.28399655 -0.1313192 0.4934878 0.28113797 -1.345029 0.4431997
0.2619832 0.1483905 -2.026307 0.21216622 -0.0011033118 0.32612595 -8.737908 0.0038346946
1.330871 -1.7425424 2.050299 0.52008057 -0.050382495 1.8186482 -0.27809185 -1.8319021
2.1103828 0.017320752 2.2821996 1.4748232 2.021583 -0.04344055 -0.2021231 2.3867023
0.32634595 -2.0024457 0.5421899 0.049628466 2.6404672 -0.34590536 -3.0877922 2.5228832
0.1587908 -0.3633409 -4.306242 -0.78400743 0.29317334 -0.016966045 -10.314584 -0.1067507
3.923022 -4.140869 4.058731 -0.72367007 0.04318288 3.7382524 -0.03757876 -3.9268045
3.8508844 -0.38913578 3.2614348 5.119751 4.300464 -0.17175598 -0.21841688 3.2909172
0.31311634 -4.11185 0.7493675 -0.17093442 3.7121255 0.10907909 -5.5798616 3.5410159
00000000: 086c 7d3d 8081 383b 7b12 443f 3f42 733f
00000010: 5e49 473e e1b4 a83e 87d1 633e 1365 be3e
00000020: 450a 4dc0 f875 873f f505 f9bf 18c1 323f
00000030: 7186 be3e 03cb f4bf 8ccc e93d 5c5d 893f
00000040: a7a4 4bbf 6a10 b8be 612e d0bf 3bb9 81c0
00000050: b394 5ec0 8aef 243e d9c1 b73e 881d 70bf
00000060: f7c4 943e e53c 2e3f 9663 bc3e 6468 a8bd
00000070: 587c c8be 0868 253d 07f6 16be 1922 61be
00000080: 8e4c 90be 28ca c3be 96f9 0040 2a4e 79be
00000090: 60eb 8f3c 53ec 8c3e 77aa 8240 03dc b63e
000000a0: 95ff 72c0 2e82 f03f 9d4a 9bc0 aa82 0bbd
000000b0: 75cf 9f3e 234b 8fc0 6c6d 2ebe 2cd3 e43f
000000c0: 7860 a7c0 88ac a63d 84fa 99c0 5281 b2c0
000000d0: 708e 98c0 a0a6 6fbe 029d 3f3e 12b5 acc0
000000e0: 6c13 efbd 6c46 0e40 0389 d8bf 4081 d13b
000000f0: 354f bcc0 2730 c8be acf1 3e40 5177 a1c0
00000100: 85c8 c1be 6119 c83e 1afb 4040 5654 f5bf
00000110: cb89 ae3e 0cb2 10be 4a23 b340 9410 50be
00000120: c9dc 47c1 5e0d 3940 4188 71c1 3336 35c0
00000130: 89d3 67be 3228 74c1 de35 013e bc66 2840
00000140: 2056 78c1 a047 97bd 9d74 7ac1 4bf9 6bc1
00000150: 1816 5ec1 00b6 d83c 0ee6 55be ef0b 7ac1
00000160: 7196 903e 4409 4a40 d31b bfc0 0001 bc3c
00000170: a9f2 80c1 2183 c3be 5dd6 8040 55ce 81c1
00000180: c250 1f3e 30c8 303d b5b9 2fbf d0bf c23e
00000190: b8be 0bbe 387c 72bd d55c 95bf 67a2 bebe
000001a0: 12eb e83d a10d 2dbf 16d2 3c3f 6cd2 9d3e
000001b0: 37ee a43e 63ac ce3e bbb4 b03e 117a d0be
000001c0: 967e 223f 27cd 7ebe ff3a 2a3f 1d0d 263f
000001d0: 92db e63d c879 ce3d 7089 b13c ad57 7b3f
000001e0: 673c 29be e034 7cbe ff67 913e 8a78 06be
000001f0: 6faa fc3e 51f1 8f3e e929 acbf 12eb e23e
00000200: a922 863e aef3 173e 04af 01c0 1a42 593e
00000210: 009d 90ba fbf9 a63e 79ce 0bc1 804f 7b3b
00000220: fb59 aa3f a10b dfbf 1938 0340 0024 053f
00000230: e05d 4ebd 77c9 e83f 0e62 8ebe c57b eabf
00000240: 8310 0740 40e4 8d3c 8f0f 1240 02c7 bc3f
00000250: 9e61 0140 b8ee 31bd 5cf9 4ebe bbbf 1840
00000260: d116 a73e 1228 00c0 f5cc 0a3f 3847 4b3d
00000270: 6afd 2840 821a b1be 639e 45c0 eb76 2140
00000280: 0e9a 223e d207 babe bccc 89c0 b6b4 48bf
00000290: d11a 963e 60fc 8abc 8908 25c1 1ca0 dabd
000002a0: cb12 7b40 0082 84c0 20e1 8140 7142 39bf
000002b0: 88e0 303d 873f 6f40 30ec 19bd c450 7bc0
000002c0: e474 7640 ce3c c7be 59bb 5040 00d5 a340
000002d0: 679d 8940 cde0 2fbe ada8 5fbe 639e 5240
000002e0: c950 a03e 4694 83c0 8cd6 3f3f 6f09 2fbe
000002f0: 7793 6d40 dc64 df3d 3a8e b2c0 01a0 6240
